model2.pkl (torch_old, 197376 bytes, 77 tensors)

conv1.weight f4 [24, 3, 3, 3]
00000000: 534e 8d3e 45bd 1c3f 36ca 0d3f 46ce 063f
00000010: ac8e 183f 7639 123f 0109 d23e 56e7 fd3e
00000020: 8aae 7f3d d02f 603d e4f7 b03e 0173 953d
00000030: 5348 36bd f6c2 f23d ab7f c53d 4d82 35bd
00000040: 1cb6 4abe 6fbc 53bc c4ed a03d a445 c43e
00000050: 0ece bf3e 77eb af3d 468e d93d 350d bd3e
00000060: deb6 a23c 625a 773e c80b 863e 5131 88bf
00000070: 8314 10c0 b378 babf 3748 d83d 47d6 3abf
00000080: d822 4bbf 02f1 8a3e 765f 37be 2a0a 20bf
00000090: d518 6abf 6dd5 ddbf d28f a4bf 22bb 4dbd
000000a0: f5da 31bf 828c 54bf 0516 d3bc 3851 d7be
000000b0: 1112 4dbf eb7d b13e 1c8c 94be a7df b73d
000000c0: ba70 693f b838 b13e ad71 c1bc f9fa 543e
000000d0: 217b f73d 62dc a3be a7b9 5cbe d0d9 0bbf
000000e0: eb51 a6be d72f b3be 88c2 90bd bdaf 1fbe
000000f0: b75d 4fbe 4f02 763d 7b6f c73e 47c5 cd3e
00000100: 9936 be3e 0791 3d3f c02f c13e 33ec 583f
00000110: 85bb 983f ca7a 553e 81b9 3a3f 74ac 943f
00000120: b568 82bf 3282 29bf 37a6 a1be 4d1f 9dbf
00000130: bf47 97bf 3cb8 37bf 5fe4 c0bf 5ce0 b1bf
00000140: a6e6 52bf b5bf 69be 4f5f 91bd 18e5 8bbe
00000150: d492 46bf 037d 33bf 916d 8bbf 2de0 35bf
00000160: b5bf 69bf 1110 44bf 45a8 733f 7954 863f
00000170: 827c 643f 4ed6 9b3f 124a a73f 663d 8c3f
00000180: e6e2 8a3f 856e 8b3f 4f80 893f 34b8 13bf
00000190: 7a93 0abf 52a3 31bf bc61 023f 3170 4d3f
000001a0: d78f 173f 36a8 883f fb97 2b3f 6d03 773f
000001b0: d876 3a3e d2d7 9d3e 50bb ea3e 0f04 87bf
000001c0: 6c54 9c3c b360 513f e423 9cbd 42eb a73e
000001d0: fcf6 fc3e a934 0fbf bb26 87be 01f7 1cbf
000001e0: 292b 17c0 e03f c5bf 142f c3be b9f5 a9bf
000001f0: 3726 a9bf a22a 0ebf cd6b 873f 61e3 6f3f
00000200: d098 423f 3ad5 87be 9265 ad3e 343b 9b3f
00000210: 73f3 ae3e 4c96 303f 0dd1 8f3f 81ec 08bd
00000220: 81b1 48be fd92 d43d 61c7 b3bf 34fa a8bf
00000230: 01d3 b7bf e97c debf 34f2 08c0 3676 dbbf
00000240: 854b 923f 11b5 a33f d0d3 8f3f ff8c 113f
00000250: bd66 093f 534c 293f 564e 013f 9df6 c53e
00000260: 664b 3b3f a29a 24bd ee24 5abd 0fbd cbbd
00000270: 9345 a6be ad2a a1be 7059 a0bd 4177 2bbd
00000280: e60c c6be 474d ddbb 01cc ea3e f21f 633f
00000290: ac2b 893f b69b 2b3e b246 173e 9ce5 683d
000002a0: 8c69 2ebc 66b0 873e a296 0bbe 3958 f3bd
000002b0: 6e41 e8bc d8ce 303e 9682 08c0 bfa7 eabf
000002c0: 3ce0 fcbf 938f ccbf 3438 03c0 a050 f3bf
000002d0: 1990 853f 48fa a13f 0044 a83f ef5f 88bb
000002e0: 43e5 97bd 2425 d6bb 84f7 153f a227 c13e
000002f0: 1dcf a43e c53d 8a3f 395d 733e 4dfe 37bf
00000300: 07f3 d33f c4be c13c 7aac f0bf 9105 7e3f
00000310: 6b11 093e e683 e2be dc2a f83e d874 373e
00000320: 6b43 3bbf 1fa0 903f 3cbf 0dbf 8e32 30c0
00000330: 6390 603f 8f2c f93d d9f1 3dbf c928 693f
00000340: 12a6 f13e f0d4 153e 1e9a a73f 13b3 45bd
00000350: 98bf dcbf a7c6 6d3f 2822 3e3e 8e08 46bf
00000360: a568 23be 9166 59bf cc26 4bbf 5c88 383e
00000370: 6c8d c1bf ec7b 3bc0 bb75 b33e 46b7 e8be
00000380: ee1c 93bf 2f45 443f 32d9 fb3e ef83 3a3f
00000390: 04fd 703f 1d5d 833c b7da 32bf 6879 9e3f
000003a0: be9e ec3e 5585 373e 66fa 1fbd 8e35 ebbe
000003b0: 8b07 c5be a565 1e3e 9bd4 1dbf 0544 abbf
000003c0: ae64 413d 65e5 01bf d426 87bf c331 cdbe
000003d0: 221c 12be 42ed 203e 39d7 0bbe 151a 41be
000003e0: e529 b63e c918 76be baed ffbd c671 8d3e
000003f0: 8dcc bc3e cf2a 893e a994 ca3e ffd0 643e
0.2759882 0.612263 0.55386674 0.526585 0.595927 0.5711893 0.41022494 0.49590558
0.062422313 0.054733098 0.34564126 0.07297326 -0.044502567 0.11853592 0.09643491 -0.044313718
-0.19796032 -0.012923344 0.0785785 0.38334382 0.37461895 0.08589833 0.1062284 0.3692414
0.019862588 0.24155572 0.26180863 -1.064005 -2.251252 -1.4568084 0.10560649 -0.7298321
-0.7935004 0.27137 -0.17907509 -0.6251551 -0.9144414 -1.7330757 -1.285639 -0.050227292
-0.69474727 -0.830269 -0.025767336 -0.42054152 -0.8010569 0.3466638 -0.29013145 0.08978205
0.9118763 0.34613585 -0.023613775 0.20798863 0.12084032 -0.32004076 -0.21555196 -0.5462923
-0.32484373 -0.34997436 -0.07068354 -0.15594383 -0.20250593 0.060060795 0.3895224 0.40189573
0.3715103 0.7404942 0.37731743 0.8473541 1.1932226 0.20847622 0.72939306 1.1615129
-1.0188204 -0.6621429 -0.31572124 -1.2275177 -1.181877 -0.71765494 -1.5069693 -1.3896594
-0.8238319 -0.22827037 -0.07098257 -0.27323222 -0.7756779 -0.7011263 -1.0892812 -0.7104519
-0.91308147 -0.76587015 0.95178634 1.0494529 0.89252484 1.2174776 1.306948 1.0956237
1.0850494 1.0893103 1.0742282 -0.57702947 -0.5413128 -0.6938983 0.5093038 0.80249316
0.5920386 1.0676334 0.6702878 0.964896 0.18209398 0.3082872 0.45846033 -1.0548114
0.019083224 0.81788176 -0.07624033 0.32796675 0.49407184 -0.5593973 -0.26396737 -0.613144
-2.3620093 -1.5410118 -0.38121855 -1.3278114 -1.3214787 -0.555338 1.0579773 0.9370633
0.76014423 -0.26529866 0.33866554 1.2127442 0.34170112 0.68979335 1.1235672 -0.033428673
-0.19598962 0.10379598 -1.4045221 -1.3201356 -1.4361268 -1.738187 -2.139783 -1.714545
1.1429297 1.2789632 1.1236515 0.5685577 0.5367239 0.66132087 0.50510156 0.38664714
0.73161924 -0.04018653 -0.053257875 -0.099481694 -0.32474956 -0.31477872 -0.07829559 -0.041861776
-0.38681716 -0.006753597 0.45858768 0.8872062 1.0716453 0.16758618 0.14773062 0.056859598
-0.0106452815 0.2650177 -0.1363168 -0.118820615 -0.028351512 0.17266405 -2.1329703 -1.8332442
-1.9755931 -1.5981315 -2.0503054 -1.900898 1.04346 1.2654505 1.3145752 -0.004161827
-0.07416775 -0.006535189 0.58580804 0.3772555 0.32189265 1.08001 0.2376603 -0.7187241
1.6558541 0.023650534 -1.8802636 0.99227244 0.1338555 -0.44241256 0.484702 0.17915666
-0.73149747 1.1298865 -0.55369925 -2.7530856 0.87720317 0.12166702 -0.74197155 0.9107786
0.47197014 0.1463201 1.3093908 -0.04826648 -1.724597 0.92881244 0.18567717 -0.77356803
-0.15957887 -0.8492213 -0.79356074 0.18020767 -1.5121284 -2.9294386 0.3505076 -0.45452327
-1.1493204 0.76668066 0.49189144 0.72857565 0.9413607 0.01603561 -0.6986498 1.23808
0.4621486 0.17921956 -0.039057158 -0.45939296 -0.38482317 0.15468462 -0.61652535 -1.3380133
0.047215156 -0.50740653 -1.0558724 -0.40077028 -0.14268544 0.15715507 -0.1365632 -0.18857606
0.35578838 -0.24032892 -0.124965146 0.27625865 0.3687481 0.26790473 0.39566544 0.2234535

dense1.0.layer1.0.weight f4 [24]
00000000: 28f5 9b3e c77f b03f 0f7a 013e f7dd e23d
00000010: e589 603f 4784 8c3f b6b6 893f 3ee1 3940
00000020: 2a88 1e3f c982 6d3e 017e 2340 b997 d03e
00000030: 0f46 073d 1556 0340 0442 6c3f 784b 173f
00000040: 06bd 2a3f 5062 473f 67ba 063f fce9 3b3e
00000050: 961a 453d fad7 0a3e b636 2040 1f31 8c3f
0.30460477 1.3788995 0.12644218 0.11077493 0.8771041 1.0977868 1.0758884 2.9043727
0.6192652 0.23194422 2.5545657 0.40740755 0.033025797 2.052129 0.9228823 0.5909953
0.66694677 0.7788439 0.5262818 0.18350977 0.048121057 0.13558951 2.5033393 1.095249

dense1.0.layer1.0.bias f4 [24]
00000000: 32ee 36bf 606e a23e a462 2cbf 4304 3ebf
00000010: 34bf 113f ebbe 42bf 874a 22bf 3e17 e93f
00000020: c35b c33d 2d9d 25bf b29f e03f 833a 5abf
00000030: a157 52be d56f 4a3f e897 10be fda9 22bf
00000040: 27f5 373f b966 d93d cc53 f03d 0629 2ebf
00000050: a3f6 c6be 8bfc edbe 851b 543e 5132 a63c
-0.7145721 0.31724834 -0.67338014 -0.7422525 0.5693238 -0.7607257 -0.6339497 1.8210218
0.095389865 -0.64692956 1.7548735 -0.8524553 -0.2054124 0.7907689 -0.14120448 -0.6354063
0.7185845 0.10615296 0.11734733 -0.68031347 -0.38860044 -0.46481737 0.20713623 0.020287665

dense1.0.layer1.0.running_mean f4 [24]
00000000: ab76 013d 9ae7 92be 5a28 423e 30df e03e
00000010: c49d a6be e492 8d3e e905 e5be c2b4 68bd
00000020: e98a 233e 686b 1e3e 9b23 8abd 38b8 b03e
00000030: 1e1d b33e 1bfc 62be c495 92be 01c2 463e
00000040: 5770 92be 3967 c0bc 69bb bebe 4366 b7be
00000050: 46ff 8ebd 610b f4bd 8db2 ce3d 3136 a13e
0.03160731 -0.28692323 0.18960705 0.4392028 -0.3254224 0.2765113 -0.44731072 -0.05681301
0.15970959 0.1547066 -0.067450725 0.34515548 0.34983152 -0.22166483 -0.28629887 0.19409944
-0.28601333 -0.02348672 -0.37252358 -0.35820207 -0.06982283 -0.11916233 0.100926496 0.31486657

dense1.0.layer1.0.running_var f4 [24]
00000000: 7390 4b42 77e9 3e43 4b4d fe41 a833 b042
00000010: 4b99 6a41 5e3e 2542 36d5 1442 5210 1542
00000020: 1274 a642 b1a5 0a42 975f f841 13ea 3542
00000030: 818d 5042 5b38 da41 8079 9042 9de6 d042
00000040: 23d3 aa41 e962 3e42 3b59 0b42 148a 2042
00000050: fe4d 0842 0caf f241 25c3 0042 ea3f 3541
50.891064 190.91197 31.78774 88.10089 14.662425 41.310905 37.208214 37.265938
83.2267 34.661808 31.046675 45.47859 52.138187 27.277517 72.237305 104.45042
21.353094 47.596592 34.83714 40.134842 34.076164 30.335472 32.19057 11.328104

dense1.0.layer1.2.weight f4 [48, 24, 1, 1]
00000000: d932 fb3d c0ef d03d 93a8 7c3e aa0c 483e
00000010: c2d5 263c b6ed 923e 48a5 1b3e 1273 35bf
00000020: b067 73bc 0478 3fbe 07c0 6ebf 4967 683e
00000030: 348f 803d 10e5 a03d efdf 0ebe a52e 7ebe
00000040: 6985 cabc bdb5 9e3e 2a26 b5be 370f 70be
00000050: 1cd3 793e 532f bc3d 6e8e e63d 2609 c6bd
00000060: e31d a5bc ad64 813e 90aa 823d d215 7cbd
00000070: 483a 373e 891c 693e 1307 ca3e 85c4 11be
00000080: 708d 8d3e abcd 243e 133e 1d3e d609 253e
00000090: 1677 773e d8ff 36be 38df f2bd 9515 cc3e
000000a0: 0f48 babe 5013 7abe 2b0e fe3d 3316 c33e
000000b0: affd 50bd d278 713e 5723 08be a169 f5bb
000000c0: 475a febd 337f 803f 3cf1 643d 2899 f0bd
000000d0: b4aa 0abf 243c 34bf 5a3b 3fbe f25d 77bf
000000e0: e41c f23e 214f ee3d b26e b83f 3ec5 7ebe
000000f0: abe6 c5bd a6c4 b9be 3802 85bf 4211 35be
00000100: 06f9 853e 5009 dfbe ef8e a63e a86f 19be
00000110: 0fb4 dfbe 5208 2d3e e5bb 6d3f 4ebf f5be
00000120: 8aae 81bc 7400 a63f bfb1 8a3d 6439 223e
00000130: 0f94 903e f35e 02be fbde a4be 4a31 1abe
00000140: f297 183f d795 1bbd e461 d2bd 68ee 273f
00000150: 04fd 433d eeee 6b3e 8fef 24bd b2a5 77bd
00000160: f2fd e83e 26b5 81bf 88b6 7d3e e657 76bc
00000170: e47c 9cbd 0332 6a3e e90b 4d40 3270 23bf
00000180: 2bbf c83d 8399 693e a2c1 d9be 9d53 423e
00000190: 4f1f db3e bde0 3f3f 6d73 af3f b5d9 17c0
000001a0: 79b8 13be 6661 633e 2117 4e3f c951 48bf
000001b0: 64b0 08be a050 edbe 3e32 133f 79e0 8dbe
000001c0: bc7c cf3e 00f5 043f 4919 d23d fa48 c6bd
000001d0: 1e62 16be be08 fd3d fe73 693f 83a2 3ebe
000001e0: e485 adbd daaf d23f eacc 0e3e dba9 9d3d
000001f0: 430c 16bf 0154 0bbf e6e4 70bf d31a febe
00000200: f4de 123f fb62 3b3c 122c 273f da5c da3e
00000210: 2650 e03c 09b4 0c3f 1f47 5bbf c88d bcbc
00000220: 7671 41be 5038 dfbe cb60 463f d1cb 4fbe
00000230: a9a4 c53c f98e 01bd 18b8 bd3f 268d 82bf
00000240: 27fd 8cbe 0a17 ad3d 1afa 2d3e a285 4f3f
00000250: 9b43 c03e 831a a83f cb4f 5e3f 26b0 1fbe
00000260: e3cb 3c3e cca8 53be 7bf6 dbbe ec2b 0c3f
00000270: 03b1 173e d499 08bf c218 34bf 8823 7d3f
00000280: ad1c 59bb 6298 2c40 ded4 fdbe 410c d53e
00000290: 58cc 0c3f ac5f 5dbe b264 babd 0d28 f53f
000002a0: 5f7b 903e d4fb 0640 9d87 0abd e530 403e
000002b0: 1af2 06bf 6d50 3ebf 228e e9bf 4264 3dbf
000002c0: 4b50 473f 2d0e 25bc 2a13 6f3e d7b3 863e
000002d0: 76fe 18be 9132 223f c26a 97bf c58d 1bbe
000002e0: 8a35 54bf 0547 85bf 920a 7c3f 9765 6fbe
000002f0: 84b9 69be b4c5 d2bd 3e55 9d3f 3b90 4ebf
00000300: 9755 463e eaae a1be 74bf cb3d 0d97 b23c
00000310: b4a1 cd3e 6fe2 27bf de58 6dbf 25b1 9ebf
00000320: 90e3 dabe 0e78 e5bc a8ae d73f 5ca2 623e
00000330: 2664 71be 1e0c dcbf a0cb 07be f78a 57be
00000340: 1cf1 cd3e 261e abbf 4c96 a7be 3ee3 cabe
00000350: beca 8dbe 3208 a23e 4350 01bf 73a6 82bf
00000360: a3f2 0cbd 2cff b0be 01ef 0c3d 1fbc 0fbe
00000370: 0fdd 8a3f 0033 863c 2741 8dbe c94e efbf
00000380: 469c e2be a25c c2bd 36a5 cc3f 420a c23d
00000390: fc55 9c3c 54c8 83bf 1ed1 ad3e 0e23 26be
000003a0: e760 e03e 1f85 1dbf 6aeb b3bd 3581 52be
000003b0: aeed 01be 26f1 873e 7421 b5be 9da4 74bf
000003c0: 746c ffbc e5ca dcbd 0e34 82be 79d6 40bf
000003d0: dc7e c1bd 26ee be3f 8975 973e f861 d1bf
000003e0: 65bd 3cbe 571f 583e c8f3 1abf b7b3 ccbe
000003f0: dbea 23be e57e 79bf 6d4c 853f 755d 193f
0.12265558 0.10201979 0.24673681 0.19536081 0.0101828 0.28696984 0.15199769 -0.7087871
-0.014856264 -0.18698126 -0.9326176 0.2269565 0.06277314 0.0785619 -0.13952611 -0.24822481
-0.024721818 0.3099803 -0.3538068 -0.23443304 0.24396938 0.09188714 0.11257635 -0.09669714
-0.020155853 0.25272122 0.063801885 -0.061544247 0.17893326 0.22764792 0.39458522 -0.14235123
0.2764697 0.16094081 0.1535571 0.16117033 0.24166521 -0.17871034 -0.11858982 0.39860216
-0.363831 -0.2442143 0.12405046 0.38102874 -0.05102318 0.23581246 -0.13294731 -0.0074893986
-0.12419563 1.0038818 0.05589412 -0.11747962 -0.5416672 -0.7040427 -0.18674985 -0.96627724
0.47287667 0.116361864 1.4408782 -0.2487993 -0.09663137 -0.36282843 -1.0391302 -0.17682365
0.26166552 -0.43561792 0.32530925 -0.14984 -0.4369206 0.16897705 0.9286483 -0.47997516
-0.015830297 1.2968888 0.067721836 0.15842205 0.2823796 -0.12731533 -0.3220137 -0.15057865
0.5960685 -0.037984695 -0.102725774 0.65598154 0.047848716 0.23040363 -0.040267523 -0.060460754
0.45506245 -1.0133407 0.24776661 -0.015035605 -0.076410085 0.2287064 3.203852 -0.6384307
0.098020874 0.22812466 -0.42530543 0.18977208 0.42797324 0.749523 1.37071 -2.3726628
-0.1442584 0.22205123 0.8050404 -0.78249794 -0.13348538 -0.46350574 0.5749854 -0.27710322
0.40524852 0.5193634 0.10258729 -0.09681888 -0.14685866 0.12355183 0.91192615 -0.18616681
-0.08472803 1.6459916 0.13945356 0.07698413 -0.5861246 -0.54425055 -0.9409927 -0.4962984
0.5737145 0.011437173 0.6530162 0.42648965 0.027381968 0.5496221 -0.856554 -0.023016825
-0.18890938 -0.4359765 0.77491444 -0.20292594 0.024126368 -0.03163049 1.4821806 -1.0199325
-0.2753689 0.0845166 0.16989937 0.8106328 0.3755158 1.3133091 0.86840504 -0.15594539
0.18437152 -0.2066986 -0.42961487 0.5475452 0.14813618 -0.53359723 -0.7035028 0.9888234
-0.0033128664 2.6968007 -0.49576467 0.4161091 0.54999304 -0.21618527 -0.09101237 1.9152848
0.28219125 2.1091204 -0.033820737 0.18768652 -0.5271317 -0.7434147 -1.82465 -0.73981106
0.7785689 -0.010074181 0.23347154 0.26309082 -0.14940819 0.6335841 -1.1829455 -0.151908
-0.82894194 -1.0412298 0.9845363 -0.23378597 -0.22824675 -0.10291615 1.2291639 -0.8068883
0.19368587 -0.3157876 0.09948626 0.021800542 0.40162432 -0.65579885 -0.92713726 -1.239781
-0.4275174 -0.028011348 1.6850176 0.22132248 -0.2357336 -1.7191198 -0.1326127 -0.21049105
0.40223014 -1.3368576 -0.32731855 -0.39626497 -0.27693743 0.31646878 -0.50513095 -1.0207046
-0.034411084 -0.3456968 0.03440762 -0.14036606 1.0848712 0.01638174 -0.2758877 -1.8695918
-0.44259852 -0.094903246 1.5987918 0.09474613 0.01908397 -1.029551 0.33948606 -0.1622431
0.4382393 -0.6153125 -0.08785136 -0.20557101 -0.12688324 0.2655117 -0.35377085 -0.9556368
-0.031179644 -0.107808866 -0.2543034 -0.7532726 -0.09448025 1.4916427 0.2958186 -1.6358023
-0.18431623 0.21105705 -0.6052823 -0.39980862 -0.16007559 -0.9745925 1.0413948 0.5990823

dense1.0.layer2.0.weight f4 [48]
00000000: 1e4b 1e3e a8f0 353e bf25 623f 8d02 ee3f
00000010: 3a52 ec3f 9733 583f d2a1 7f3f 1a85 cb3f
00000020: 7f94 1f40 2b8d 2b40 6f3e e73f a214 ad3f
00000030: 4dad fe3e 9a49 0340 64a6 1240 9637 863f
00000040: e79f 0540 bdcf da3f 5ead 523d 4b61 3840
00000050: a3ca 843e cfd4 3640 d36b 853f c317 763e
00000060: 7011 cf3e c2c9 1d3f 401d 373f e20f 9e3f
00000070: 9393 943f b5cb 1340 5dcd fe3f fb60 c83f
00000080: c29a f43f f0ff 273f 746c 6f3e d816 713f
00000090: 7a21 d63f 3555 f23d 5d73 0540 6837 3c40
000000a0: 8e07 513d 8687 923f 7687 133f 69ca 863e
000000b0: e514 0440 9baf 1a40 5d34 113f 09b4 e73d
0.15458342 0.17767584 0.88338846 1.8594528 1.8462594 0.8445372 0.99856293 1.5899994
2.4934385 2.6804912 1.8065928 1.3521922 0.49741593 2.0513673 2.2914057 1.0485713
2.0878847 1.7094647 0.051434867 2.8809383 0.2593585 2.8567388 1.042353 0.24032502
0.4044299 0.61635983 0.71529007 1.2348597 1.1607536 2.3093083 1.9906422 1.5654596
1.9109728 0.65624905 0.23381215 0.9417548 1.6728966 0.11832658 2.0851662 2.9408817
0.051032595 1.1447608 0.5762857 0.26326302 2.0637753 2.416968 0.56720525 0.11313636

dense1.0.layer2.0.bias f4 [48]
00000000: 8782 3cbf c9e8 2fbf 117e 06bd 0e3c 1fbe
00000010: 5b9b ea3e 51cb 31bf 5da3 acbf b132 00bf
00000020: ccad 2bbf 10fa 2abf 4259 5d3d 4b43 cfbd
00000030: 3800 93bf 6630 973f d214 3cbe 8092 04bf
00000040: cc3d 393f 5d4e 91bf c34a eabe 5c73 8ebd
00000050: 63e2 01bf 378e b93f 476e 3cbf 0783 f6be
00000060: ec82 2ebf fdbd 05be a0be ddbe 1ad4 babf
00000070: cbdd 45bf 6589 6fbe 5ae6 be3e 5943 38bf
00000080: 863e 44be 9b41 bebd 4c1b 5dbf 97bd 5fbf
00000090: 26db 14bf 6036 26bf fdba 2ebe dc06 963f
000000a0: dba6 71be d0f8 76bf c591 82be 279f 71bf
000000b0: 2123 d7be 6a60 34be bd03 d1be a1e7 63bf
-0.7363667 -0.68714577 -0.03283507 -0.15550253 0.45821652 -0.6945086 -1.3487355 -0.5007735
-0.6706207 -0.66787815 0.0540402 -0.10120257 -1.1484442 1.1811645 -0.18367317 -0.5178604
0.7235992 -1.135204 -0.45760164 -0.06955597 -0.50736064 1.4496526 -0.7360577 -0.4814684
-0.6816852 -0.13060756 -0.43309498 -1.4595978 -0.77291554 -0.23392256 0.3728512 -0.71977764
-0.19164476 -0.09289857 -0.86369777 -0.87398666 -0.58146894 -0.6492672 -0.17063518 1.1720843
-0.23598807 -0.9647341 -0.25501838 -0.9438347 -0.4201899 -0.17614904 -0.40823165 -0.8902531

dense1.0.layer2.0.running_mean f4 [48]
00000000: 569e 50c0 2de5 32be bbab a23f 63e0 7440
00000010: e5b0 f2bf d6af 1440 4b08 383e 0c06 c33e
00000020: 1ffc 38c0 fe93 12c0 9fcb fdc0 3ffb eac0
00000030: 8013 5540 2983 b1c0 403c 1140 234b 3d40
00000040: e426 d9bf 58d8 9440 82b0 d1bf 9b99 3740
00000050: 43c4 84c0 6913 00c1 c190 e7bf 821e 14c0
00000060: efe5 d1c0 026e 4b40 4768 67bf aded 3a40
00000070: 9141 bf3e ff06 1ac0 4807 d7c0 5940 3d40
00000080: 6558 e73e 25a1 3dc0 d3f7 5ac0 dd5a db40
00000090: 2736 1141 7b5f 8ebf b860 253e c2eb 5ac0
000000a0: e587 9cbf 9e98 7640 b3f0 f73f c5b3 e5bf
000000b0: 9672 83c0 5f37 0c40 eadb 21c0 dda3 0c40
-3.259664 -0.17470236 1.2708658 3.8261955 -1.8960234 2.3232322 0.17971914 0.3809055
-2.8903883 -2.2902827 -7.931106 -7.3431697 3.3293152 -5.5472608 2.2693024 2.957711
-1.6964993 4.651409 -1.6381991 2.8687503 -4.1489577 -8.004739 -1.809105 -2.314362
-6.559318 3.1785893 -0.9039349 2.9207566 0.3735471 -2.406677 -6.719639 2.9570525
0.45184627 -2.9629605 -3.421376 6.8548417 9.075721 -1.1122888 0.16150177 -3.4206395
-1.2228972 3.853065 1.937033 -1.7945486 -4.1077375 2.1908796 -2.5290475 2.1975014

dense1.0.layer2.0.running_var f4 [48]
00000000: 2c01 1140 a7a0 9b3f cdbf cb41 04ac ef41
00000010: 8827 5042 a756 7c41 237f fa40 3a78 9b41
00000020: 7af6 7742 524a 8e42 d73e 0a42 ca38 5641
00000030: bd7d 3941 c504 8442 11fd 3e42 fd32 5841
00000040: fd87 a042 1228 f341 c8b7 9e3f fae7 ca42
00000050: faa3 da40 fdda ae42 20be e241 6a3b 6740
00000060: 9302 6d41 ca1f 8d41 b4a1 c441 5f8c a341
00000070: cba2 cc41 6652 8c42 93ee b941 a929 fa41
00000080: 9fc0 af42 ea8e 2542 d11d 9e40 3f96 eb41
00000090: c329 4342 0e1e 873f 81d4 dd41 560f 7c42
000000a0: e246 3241 e9cc 6941 75e4 d541 030f 2c41
000000b0: 95fe 1a42 68c1 1f42 0e58 de40 545a ac40
2.2656965 1.2158402 25.468653 29.958992 52.038605 15.771155 7.8280196 19.433704
61.9907 71.14516 34.561367 13.3888645 11.593198 66.009315 47.747135 13.512448
80.2656 30.394566 1.2399836 101.45308 6.8325167 87.42771 28.342834 3.6130013
14.813128 17.640522 24.578957 20.44354 25.579489 70.160934 23.241491 31.270342
87.87621 41.389565 4.9411397 29.448362 48.790783 1.0556047 27.728762 63.014977
11.142305 14.612527 26.736551 10.753665 38.748615 39.938873 6.948249 5.3860264

dense1.0.layer2.2.weight f4 [12, 48, 3, 3]
00000000: 7103 bc3c 8074 e53d 4344 0f3e 80ec e13d
00000010: 03e9 843d 0c9f f83d 2060 d63d d6c7 263e
00000020: a66b 3d3e d964 d9bd 7762 babd 82eb a4bd
00000030: ad85 ecbd 916a 84bd 373f bebd 6946 06be
00000040: bc25 0bbe 0ada fcbd 38bd a6bf 43a6 0ebf
00000050: d1b0 debc c118 63bf 459a 68be 8f2d 583e
00000060: ede4 b5bf 649c 22bf 2dc6 623e ece0 debf
00000070: bb99 d6bf 0af1 f5bf 2eb8 853e 04b0 1e3f
00000080: 37e1 0d3f da3c 0dbf 99f9 9ebe c745 693c
00000090: 38ba 53bf 6e88 8ebe 404d 0a3e 7099 02bf
000000a0: 5ffb 36be 05ff 52bc 2177 27bf 9449 b4be
000000b0: cb81 ab3d d7b3 3fbf 3633 62bf a2a9 a9bf
000000c0: ccc8 313e aa24 083f c7e8 343f 0851 56bf
000000d0: 62ef d0be e510 9c3e 356e 913f 0659 ad3f
000000e0: c120 e43f c1db 953e 290c 7b3e 0c53 e13e
000000f0: d599 2cbf d42e 24bf 15d8 46bf 3dd8 90bf
00000100: 551c b2bf b19c ecbf bffe cd3e bb83 bb3e
00000110: 20fa 703e 9247 24bf 5aa0 1cbf f277 bbbe
00000120: cdac b8bf 4bf9 5f3e 9ffb 913f 089b dbbf
00000130: 7052 9fbf a219 9bbe 6bc9 ddbf 4631 c6bf
00000140: 6b03 593e aba2 acbf c940 5f3e d942 7d3f
00000150: acde e3bf b25b babf c40e 31bf b9eb febf
00000160: 98b3 f5bf f398 89be f3f6 6b3e 9698 843e
00000170: 501e c63e 76dc 393e 27d0 d3bd ce81 adbe
00000180: 7512 d93e e54d da3e f0ec 0e3e 27c5 113e
00000190: 1112 8a3e 5e12 cc3e c662 733f 70b5 7c3f
000001a0: 0a76 983f dae4 d23f 7a95 de3f 31ff d13f
000001b0: 2aff 52bf 181e 9abe 421c 90be 8e33 89be
000001c0: b1c6 053e 4e02 6b3d e87e 96be d026 d6bc
000001d0: e9d6 ce3e 2e18 073f 13ed 053f 29de bc3e
000001e0: a914 04bf 549e bdbe 50c6 4bbd 46b3 203f
000001f0: 478d 813e 9f55 e53e 0791 cabf d86b 83be
00000200: 6ee4 0a3f 65e8 a1bf 099f 05bf a357 263e
00000210: 29e0 cabf 2854 47bf 4ca1 023f dd21 f1be
00000220: 1ace 8438 f4c0 263f d4a1 33bf dfab 51bf
00000230: 8849 26bf 71bb 6dbf 54ed 85bf 6811 38bf
00000240: a872 fbbe 1fbd 96be a348 03bf 04ba 32bf
00000250: 96c5 22bf 46ea c4be d2b0 383e 458d dcbe
00000260: 6af0 ddbd 81ef 9dbe 3ba3 3a3f fbb0 d03f
00000270: 0c8a b4be 7b24 16be 0216 023f dda5 0fbf
00000280: 54f5 5dbe 652f 833e b741 c23d 5d8c ae3d
00000290: dc6d f53d 7c06 4a3d 59ac c93c 8c74 3c3d
000002a0: 256c 113c d787 84bd 5956 fc3c 97db 3abf
000002b0: b7cc 5bbe 8f38 45bf 92de b3bf 5c52 a8bf
000002c0: 0122 a0bf 89ef 83bf 5b98 fabf 0468 c8bf
000002d0: c796 163e 7a96 513e 0787 273e 7784 8a3d
000002e0: 307c 4e3d dca9 343d 6075 12bc 66b0 633c
000002f0: 2494 8b38 4cb5 fabe 6847 2fbe 106e 5c3d
00000300: e823 aebe 66ee 81be 3888 fbbe 489c f8bd
00000310: 9064 8e3e 011b d33e 707c 0bbe cb22 a63e
00000320: 39d5 4e3f ed19 a0bd 2d38 9fbe 6ab3 b9bd
00000330: e8e9 ed3d d6c8 a7be d345 46be 38bd ce3d
00000340: 9d25 0e3e e1d4 513e 6646 04be f9d5 f9bd
00000350: c580 55bc abe0 48be 6595 47be 132d f0bd
00000360: f1d6 003e b76f 333d 4c0f 323d 2d84 2d3d
00000370: fc5c d5bc 92c3 c73c 9e77 c93e 32f6 ec3e
00000380: 8336 ef3e b31c 55bf de2e e7be 2586 1bbf
00000390: 0780 cd3b 4820 7f3e e85a 333e 3a53 f7be
000003a0: 31ff 72be c935 d83d 7bec 13bf 959f 14be
000003b0: c9dc 8f3d 6021 1bbf 6b8f 22bf 4c3e 01bf
000003c0: 141e 0abf 2be4 32bf 8501 f6be 4893 90be
000003d0: 8e62 983e 5fa0 973f 6cf5 833e eb61 0b3f
000003e0: 13dd 6c3f df49 a93b 09d0 2e3f c2c1 633f
000003f0: cfbe d9be 517c 9f3e 15e9 7a3f f393 50bf
0.02295086 0.11203861 0.13990884 0.11031437 0.06489756 0.12139711 0.10467553 0.16287169
0.18498096 -0.10614938 -0.09100812 -0.08052732 -0.11548934 -0.064656384 -0.09289401 -0.13112797
-0.13588613 -0.12346275 -1.3026495 -0.55722445 -0.027183922 -0.88709646 -0.22715099 0.21111129
-1.4210488 -0.63519883 0.2214591 -1.7412391 -1.6765665 -1.9214184 0.2611708 0.6198733
0.55421776 -0.5517098 -0.31049803 0.014237828 -0.8270602 -0.27838463 0.13506031 -0.5101538
-0.17869328 -0.012878184 -0.6541615 -0.35212386 0.083743654 -0.7488379 -0.8835939 -1.3254893
0.17361754 0.53180945 0.7066769 -0.83717394 -0.40807635 0.3048164 1.1361758 1.3542793
1.7822496 0.2926922 0.24516357 0.44008672 -0.6742223 -0.64133954 -0.77673465 -1.1315991
-1.3914896 -1.8485318 0.40233418 0.3662394 0.23532915 -0.6417171 -0.6118218 -0.3661495
-1.4427735 0.21872441 1.1404914 -1.7156687 -1.2447033 -0.30292994 -1.7327093 -1.5483787
0.2119271 -1.3487142 0.21802057 0.98930126 -1.7802329 -1.4559233 -0.69163156 -1.9915687
-1.9195433 -0.26874503 0.23043422 0.25897664 0.38695002 0.18150505 -0.10342436 -0.33888096
0.42396894 0.42637554 0.13957572 0.14235364 0.2696691 0.39857763 0.9507259 0.9871435
1.1911023 1.647609 1.7389367 1.6406003 -0.824206 -0.30101085 -0.2814656 -0.26797146
0.13064076 0.057375245 -0.29393697 -0.026141554 0.40398338 0.5277127 0.5231487 0.36888245
-0.51594025 -0.37034857 -0.049749672 0.6277355 0.253031 0.44791886 -1.5825509 -0.25668216
0.54254806 -1.2649046 -0.52195793 0.16244368 -1.5849658 -0.7786279 0.5102737 -0.47096148
6.33264e-05 0.65138173 -0.70168805 -0.8190288 -0.6495595 -0.9286414 -1.0463052 -0.7190156
-0.49110913 -0.29441163 -0.5128271 -0.6981509 -0.6358274 -0.38459986 0.18036202 -0.4307653
-0.10836871 -0.3084679 0.7290532 1.630401 -0.3526157 -0.14662354 0.5081483 -0.5611246
-0.21675617 0.25622097 0.0948519 0.08522866 0.11983845 0.04932259 0.024618315 0.046009585
0.008875881 -0.06471222 0.030802893 -0.7299132 -0.21464811 -0.77039427 -1.4052298 -1.3150134
-1.2510377 -1.0307475 -1.9577745 -1.5656743 0.14705954 0.20467559 0.16360103 0.06763547
0.050411403 0.044107303 -0.008939117 0.013897037 6.65563e-05 -0.48966444 -0.17117083 0.0538159
-0.3401177 -0.25377196 -0.49127364 -0.12139183 0.27811098 0.4123154 -0.13621688 0.3244842
0.807941 -0.07817445 -0.31097546 -0.09067424 0.1161688 -0.32770413 -0.19362573 0.10094684
0.13881536 0.20491363 -0.1291748 -0.12199015 -0.013031189 -0.19616954 -0.19490583 -0.11727347
0.12581994 0.04380771 0.04347162 0.04236238 -0.026045315 0.024385247 0.39349073 0.46281582
0.46721277 -0.83246917 -0.45152944 -0.60751563 0.0062713656 0.24914658 0.17515147 -0.48305684
-0.2373016 0.10557134 -0.57782716 -0.14514 0.07024533 -0.605978 -0.6350009 -0.5048568
-0.53952146 -0.69879407 -0.48048034 -0.28237367 0.2976269 1.1845816 0.2577318 0.54446286
0.9252483 0.005166277 0.68286186 0.88967526 -0.42528388 0.31149533 0.98011905 -0.8147575

dense1.1.layer1.0.weight f4 [36]
00000000: 2e39 c83e 44ba af3f e3dc d63e a7f2 693f
00000010: a8eb a33f 40d6 0840 e8cf a13f 9b98 773f
00000020: 8971 8c3e 52e4 003e dcf7 9b3f c283 583f
00000030: 257d 7d3f d2ed 953f d75a d03f 68e1 2f3f
00000040: 4c86 903f 9fd5 913f 58bb a53f 4b6c 953e
00000050: 5b46 0f3e ba89 c93e ff9c 4640 1d4f 8c3f
00000060: 4191 d23f 342d d43f 8d7c 813f 329b cf3f
00000070: 5156 963f 5534 fa3f 4028 b83f 747c f03f
00000080: 2d94 c93f 4972 e63f 71a8 3d40 4703 1c40
0.39106125 1.3728719 0.41965398 0.91385883 1.2806292 2.1380768 1.2641573 0.9671723
0.2743037 0.12587097 1.2185016 0.84576046 0.9901908 1.1713202 1.6277722 0.6870332
1.1290984 1.1393317 1.2947798 0.29184183 0.13991682 0.3936289 3.1033323 1.0961643
1.6450578 1.6576295 1.0116135 1.6219237 1.1745092 1.954722 1.4387283 1.878798
1.5748345 1.8003627 2.9634058 2.4377

dense1.1.layer1.0.bias f4 [36]
00000000: 3ea1 84bf 749b dbbe e175 11bf 8e8e bebe
00000010: da30 6bbf 72f3 383e e01e 0a3f c534 183f
00000020: ba2b 09bf bfdf 66bf bdb7 5bbf a791 72bf
00000030: 1526 6ebf eaed e6be 9bd0 87bf 5a32 60bf
00000040: db7e 29bf 87e9 d5be 032e 84bf 6f92 91bf
00000050: bc69 3e3f d594 6cbf b6e0 0e3f 7962 cf3f
00000060: d377 c3be b10c a8be f2c8 21bf 2943 123d
00000070: 9fc9 3fbf 2784 65bf a924 63bf 39d6 f13d
00000080: 4e30 15bf 5ecd 14bd 2758 203e 2fbb 153f
-1.0361707 -0.4289204 -0.56820494 -0.37218136 -0.91871417 0.18061617 0.5395336 0.5945552
-0.53582346 -0.9018516 -0.8582724 -0.947535 -0.9302686 -0.4510339 -1.0610536 -0.8757683
-0.6620919 -0.4177973 -1.0326542 -1.1372813 0.7438009 -0.924146 0.5581163 1.6201926
-0.38177356 -0.32822183 -0.63197243 0.03570858 -0.74917024 -0.89654773 -0.88727814 0.11808438
-0.5827683 -0.036328666 0.15658627 0.58488744

dense1.1.layer1.0.running_mean f4 [36]
00000000: ab76 013d 9ae7 92be 5a28 423e 30df e03e
00000010: c49d a6be e492 8d3e e905 e5be c2b4 68bd
00000020: e98a 233e 686b 1e3e 9b23 8abd 38b8 b03e
00000030: 1e1d b33e 1bfc 62be c495 92be 01c2 463e
00000040: 5770 92be 3967 c0bc 69bb bebe 4366 b7be
00000050: 46ff 8ebd 610b f4bd 8db2 ce3d 3136 a13e
00000060: 92e7 30c2 490a 29c2 1823 d4c0 2f75 b5c1
00000070: ccb7 84c1 1c41 8bc1 c079 81c2 e2a9 87c0
00000080: 737b dec1 a386 9bc1 15e2 f9c1 2e3a 2bc2
0.03160731 -0.28692323 0.18960705 0.4392028 -0.3254224 0.2765113 -0.44731072 -0.05681301
0.15970959 0.1547066 -0.067450725 0.34515548 0.34983152 -0.22166483 -0.28629887 0.19409944
-0.28601333 -0.02348672 -0.37252358 -0.35820207 -0.06982283 -0.11916233 0.100926496 0.31486657
-44.226143 -42.260044 -6.629284 -22.682219 -16.589745 -17.406792 -64.73779 -4.2394876
-27.810278 -19.44074 -31.235392 -42.806816

dense1.1.layer1.0.running_var f4 [36]
00000000: 7390 4b42 77e9 3e43 4b4d fe41 a833 b042
00000010: 4b99 6a41 5e3e 2542 36d5 1442 5210 1542
00000020: 1274 a642 b1a5 0a42 975f f841 13ea 3542
00000030: 818d 5042 5b38 da41 8079 9042 9de6 d042
00000040: 23d3 aa41 e962 3e42 3b59 0b42 148a 2042
00000050: fe4d 0842 0caf f241 25c3 0042 ea3f 3541
00000060: 377d 2845 fff1 8745 0fdf 0b45 5ae0 d844
00000070: b252 b844 4bee 4b45 1bca 8345 7c7c 7944
00000080: f893 2b45 e508 2145 72a9 e344 5f09 1345
50.891064 190.91197 31.78774 88.10089 14.662425 41.310905 37.208214 37.265938
83.2267 34.661808 31.046675 45.47859 52.138187 27.277517 72.237305 104.45042
21.353094 47.596592 34.83714 40.134842 34.076164 30.335472 32.19057 11.328104
2695.826 4350.2495 2237.9412 1735.011 1474.5842 3262.8933 4217.263 997.94507
2745.248 2576.556 1821.2952 2352.5857

dense1.1.layer1.2.weight f4 [48, 36, 1, 1]
00000000: b24e afbd 85fa babe e6e5 e73d a257 c53c
00000010: 52bc 13bd d195 393e 6a06 87bf 23ef a8be
00000020: 7014 7ebe 6c55 c33d 7c0d 00bf a978 f3bd
00000030: 2b20 053f c3f6 00bf 8675 93be 034b 0cbe
00000040: c743 0fbf 8af9 043e d870 bfbd db1a 97be
00000050: 762b 2cbd 0711 03bd 3bcb 083e fa90 0d3f
00000060: 5762 b93e 67f6 c4be 23ad 3bbe 6180 a03e
00000070: 109e 0bbe 069e dfbe f3d6 a33e 3f6c db3e
00000080: feb6 ad3e 24b5 11be ea6a 983f 5560 173e
00000090: 1d03 b6bd 05ca 1e3f 91aa 073f 9656 043f
000000a0: 8504 0cbf a0c4 a3be ac77 02c0 ea46 abbe
000000b0: 75a2 49be f2c1 f4bb 8c49 ca3d 42c6 19bf
000000c0: b183 453f 8189 75bf 259f 99bf 03e3 02bf
000000d0: e4e8 83bf 9fc4 86be dcbd cb3e 28c2 9ebd
000000e0: b4f8 1abf 89cb e63c 814b a3bf 1c51 243f
000000f0: 81b2 ccbe 5eea c03e 8763 afbf cb70 693e
00000100: 2bbd 933f 16f1 9e3f 1eda b7bd cf49 e93e
00000110: 5d79 f03e bbd1 8bbf 0d43 86bf f2b8 4b3f
00000120: 52bb ebbd 6d82 71be ea49 21be 14fe 423f
00000130: aa2f 913e 1f08 acbe 7158 7fbf fa67 57be
00000140: 5c0c 20be 7eb6 08be 4b8a 3e3f 0e9a 8f3f
00000150: 1238 93bd d99d a73b 8df2 7ebd 8f1d 843d
00000160: 9fae 643f 5080 62bf fbd2 d7be 3786 1fbe
00000170: cc52 0b3f 3658 9fbe c985 ca3f d4d2 97bf
00000180: 6f96 0f3e e126 513e 8725 b83e 3e8b 893f
00000190: a41c c33e 2e98 33bf 5e62 d53e 9a58 d9bf
000001a0: 89cf f4bd eb73 9f3f 1945 d63f b824 f2bf
000001b0: 0f17 5f3d 75d2 18be 3432 92bc 6a3f c53e
000001c0: d569 03be 075b 17bf 3004 46bf 608d 423e
000001d0: 1bab 4dbe b715 0d3e 9fad 4abf f4d8 033e
000001e0: 4966 6f3e abc7 263d 27f3 aabe 144f 303d
000001f0: e7cc 8c3b 171b 80bf d31e a9be 92ff 3ebe
00000200: 37be 5c3e eda1 b7bd cd62 8c3f 3028 59bf
00000210: 5e5c 94bc e8f6 44be a1c1 d33e 94a9 693f
00000220: b327 d9be ec83 6cbf 5859 8ebe 6d11 e3bf
00000230: 414d 873d 2e24 903f 9e95 5e3f 9793 14bf
00000240: ec6f c2bc 0460 c43e fcc5 993d cfd3 9dbe
00000250: a311 833f 1600 bd3e 1740 c43f aa8c 513e
00000260: 0f47 4ebe 0d69 e73d 8bc6 113f dea4 f8be
00000270: af39 0ebf 39c5 c83e 2f30 943f d913 14bf
00000280: 55f7 a33f 23c3 6a3f ea57 f83e d147 983d
00000290: 7b03 823e 60ce f93d aa3b 95be e658 eabe
000002a0: bd8c ccbe f94f 86be 8bef 0ebf db94 2bbe
000002b0: 9e11 8ebf 38a7 c0bf e3ef dbbe 7d26 fb3e
000002c0: 872e b7bf 6cf1 163f cd38 9ebe 0558 ca3f
000002d0: 531c 623d 0e9c 913f 06df 2cbf 101e 85bf
000002e0: 8a9a 593d 67c0 74bf b35b cd3f fb81 ca3e
000002f0: 5c33 1f3e 0610 2cbe 9809 36bf b269 0dbf
00000300: 2b7e aebf 7f42 c93e 2997 15bf 4f00 17bd
00000310: 931a aebe 108d 48bf e2c6 4d3f bf16 8e3e
00000320: 4f6d e7be e980 8f3e 1be9 b2bf a26c d1bf
00000330: b0a3 de3b 172a 51bf 735f fabd 6b50 843f
00000340: 3094 473f dce6 923f 2027 33be 3be3 77bf
00000350: 4f6d b73e 581b 963e f6c7 cb3e 75b2 28bf
00000360: aeeb fdbd 13d9 83be 000b 40be 6813 b53e
00000370: 4f3a 9abe 5761 2cbf 67bf 23bf e92d fc3d
00000380: 9573 f8be a4f0 be3a 33e7 f6be 2142 2f3e
00000390: 1ae5 6e3e 9e36 68be e593 cdbe 0f05 eebe
000003a0: 7cf9 98be 832a 54be 66a7 39bd 6efb 83be
000003b0: b664 423e f042 67be 2f40 8dbf 3395 033e
000003c0: 6421 903b 94bb a63e 6bfd 37bf 80a4 8e3e
000003d0: 79b2 b33e 2040 493f c698 ddbc ac97 81bd
000003e0: 82aa 263f 8f65 99be dbc6 8ebf 9b4b 373e
000003f0: 3ea4 ddbc 67c6 f1bd 0c3f e53c e7e5 16bf
-0.08559932 -0.36519256 0.113231465 0.024089638 -0.036068268 0.18123557 -1.0548832 -0.32994947
-0.24812484 0.09537777 -0.50020576 -0.118882485 0.5200221 -0.5037653 -0.288006 -0.1370049
-0.55962795 0.12985817 -0.09347695 -0.29512677 -0.042033635 -0.03199866 0.13358776 0.5529934
0.3620784 -0.3846924 -0.18327765 0.31347945 -0.13634515 -0.4367525 0.3199993 0.42856023
0.33928674 -0.14229256 1.1907628 0.14782842 -0.088873126 0.6202701 0.5299464 0.5169462
-0.54694396 -0.3198595 -2.0385542 -0.3345254 -0.19690879 -0.007469409 0.09877309 -0.6006814
0.7715407 -0.9591294 -1.2001692 -0.5112764 -1.0305448 -0.26321885 0.3979329 -0.07751876
-0.6053574 0.028173225 -1.2757417 0.64186263 -0.39979938 0.37678808 -1.3702248 0.22796933
1.1542104 1.2417324 -0.089771494 0.45564124 0.46967593 -1.092338 -1.0489212 0.7957908
-0.11510338 -0.2358491 -0.15750852 0.7616894 0.28356677 -0.33599946 -0.99744326 -0.21035758
-0.15629715 -0.13350865 0.7442977 1.1218889 -0.07188429 0.0051152525 -0.062243033 0.0645095
0.8932895 -0.8847704 -0.42153153 -0.15578543 0.54423213 -0.31121987 1.5822078 -1.1861215
0.1402223 0.20424987 0.3596613 1.0745618 0.3810779 -0.7015408 0.4167661 -1.6980164
-0.11953647 1.245725 1.6739837 -1.8917456 0.05446535 -0.14924033 -0.017846204 0.38524944
-0.1283334 -0.5912327 -0.7735014 0.18999243 -0.20084803 0.13777815 -0.79171175 0.1287573
0.23378862 0.040717762 -0.33388636 0.043044165 0.004296887 -1.0008267 -0.3303133 -0.1865218
0.21556936 -0.08966432 1.0967652 -0.84826946 -0.01811045 -0.19234812 0.41358665 0.9127438
-0.424131 -0.92388797 -0.2780254 -1.7739693 0.06606532 1.1261041 0.8694705 -0.58037704
-0.02373501 0.38354504 0.07508466 -0.3082566 1.0239757 0.36914128 1.5332059 0.20463815
-0.20144294 0.11299334 0.5694358 -0.48563284 -0.5555677 0.3921297 1.1577204 -0.57842785
1.2809855 0.91704005 0.48504573 0.07435573 0.2539328 0.12197566 -0.29147083 -0.4577095
-0.39951125 -0.2623289 -0.55834264 -0.16756003 -1.1099126 -1.5051031 -0.42956457 0.49052802
-1.4311074 0.5896213 -0.3090271 1.5808111 0.055202793 1.1375749 -0.67527807 -1.0399799
0.053125896 -0.9560608 1.6043609 0.39552292 0.15546936 -0.16802987 -0.7110839 -0.55239403
-1.3632253 0.39308545 -0.5843378 -0.03686553 -0.3400465 -0.78340244 0.80381596 0.2775173
-0.45200583 0.28028038 -1.3977388 -1.6361277 0.0067944154 -0.8170485 -0.12225237 1.0337042
0.7796049 1.1476703 -0.17495394 -0.968311 0.35825583 0.29317737 0.39800996 -0.65897304
-0.12398468 -0.25751552 -0.18754196 0.35366368 -0.3012261 -0.6733603 -0.6396393 0.12313444
-0.48525682 0.0014567566 -0.48223266 0.1711507 0.23329583 -0.22677085 -0.40151897 -0.46488234
-0.2987784 -0.20719342 -0.04532566 -0.25777763 0.1898373 -0.22584128 -1.1035212 0.12849884
0.0043985117 0.32564986 -0.7187106 0.2785988 0.350971 0.7861347 -0.027050387 -0.06327757
0.65103924 -0.29960296 -1.1154436 0.17899935 -0.027055856 -0.1180542 0.027984165 -0.58944553

dense1.1.layer2.0.weight f4 [48]
00000000: c222 413d 2eeb 933f bf4b 2540 1e73 513f
00000010: aa8d bd3f e0e8 743f 727d 7f3e ecd7 983f
00000020: e32d 933e 8955 a93f 4311 193f ee6b 0a40
00000030: a1ec 9c3d d817 563f cd15 2540 9ab7 703f
00000040: 66df 3a3e d34f f43f 7590 d33f 9a5d 0a40
00000050: 49fc 9d3f 687b 533e 3b37 f63f 7558 f83e
00000060: e788 4f3f d39e 2140 cf06 983f 7ce8 e13f
00000070: 1a1d 913f 2f13 c83f 0692 723f 5413 c43f
00000080: 87d3 053f 463d c03e c7a3 a93e 90cf 1e40
00000090: c099 ea3f fc36 fe3f 5cf8 9f3f 9c3c 9c3f
000000a0: 5cd2 fb3f a7d1 da3f 4901 4d3f e032 253f
000000b0: 40d3 a83f 678d 9e3f c532 943f 0824 4f40
0.04715229 1.1556146 2.5827482 0.8181628 1.4808857 0.9566784 0.24950197 1.1940894
0.28745946 1.3229228 0.59791964 2.1628375 0.07662321 0.8363013 2.5794556 0.94030154
0.18249282 1.908686 1.652846 2.161963 1.2342616 0.20652544 1.9235605 0.48504987
0.8106827 2.5253189 1.1877078 1.7649074 1.1337006 1.5630854 0.94754064 1.5318398
0.5227589 0.37546748 0.33132765 2.4814186 1.8328171 1.986053 1.2497668 1.2205997
1.9673572 1.7095231 0.80080086 0.64530754 1.3189468 1.2386903 1.1577994 3.2365742

dense1.1.layer2.0.bias f4 [48]
00000000: 7a68 d5be ef08 27bf af04 12bf 2ae5 edbe
00000010: 1d80 67bf dc99 35bf fdd3 29bf 8b78 80bf
00000020: dea9 82bf 1bc1 28bf 169b 4dbf e835 37bf
00000030: 4bdf d6be 6f6d 5fbf 272d 3cbf 199f b9be
00000040: 891d 44bf e3fd 82be e191 b0bf 628a 893e
00000050: 71c5 5ebf 4c7a 3fbf c4a0 243f 4d7a 87bf
00000060: 3f4d 16bf 5fb5 42bf 3f09 24bf 3420 a2bf
00000070: c95f 0e3e 4dc3 8abf 76ef e5be e7d1 6bbe
00000080: 2622 88bf 29a9 72bf 8ac2 88bf ea5d 94be
00000090: f908 f7bd bc62 58bf f52b 3abe f149 8fbf
000000a0: 9534 203f 29c3 803d 3819 0fbf 0d56 24bf
000000b0: fcf7 9fbf 5c90 273e 95e2 01bf b756 42bf
-0.41681272 -0.65248007 -0.57038397 -0.464639 -0.9042986 -0.70937896 -0.66339093 -1.0036787
-1.0208089 -0.65919656 -0.8031477 -0.7156663 -0.41967234 -0.8727636 -0.73506397 -0.36254194
-0.7660757 -0.25584325 -1.3794519 0.2686339 -0.8702002 -0.74795985 0.6430781 -1.0584198
-0.5871162 -0.76058 -0.6407661 -1.2666078 0.13903727 -1.0840851 -0.44909257 -0.2302929
-1.0635421 -0.9478937 -1.0684369 -0.289779 -0.12062258 -0.84525657 -0.18180831 -1.119444
0.62580234 0.06287224 -0.55897856 -0.64193803 -1.2497554 0.16363662 -0.5073636 -0.75913566

dense1.1.layer2.0.running_mean f4 [48]
00000000: af5e c73f 5d09 67c0 65c6 47bf 7d4c b7bf
00000010: f9c3 2a40 6b1c 90c0 9fee 49c0 bf6b 0d40
00000020: fe94 42bf c663 bcc0 8b37 cc3f 12f6 2ebf
00000030: 05dd 48c0 c75f c83e b9d2 98c0 eb93 f63f
00000040: a615 c3bf e8ca ac3f 0e75 7340 2b46 fac0
00000050: 483c 45c0 2041 803f fdaf c9bf 2cb6 e2bf
00000060: 84b6 98c0 7f24 43bf 0e80 ac3f 50b6 b940
00000070: 52c9 07c1 59fc 5cc0 0f18 3d3f 4270 8f40
00000080: 0d41 a5be 5301 833f 0ef0 e93d c164 27c1
00000090: 5616 82c0 5ad6 23bf 779e dbc0 46c4 c33f
000000a0: 6dc3 d7c0 fbbc 88c0 c7cd 3cbf 39b6 c93e
000000b0: 2743 4840 4dbb 2cc0 ad75 a2c0 b563 59c0
1.557577 -3.6099465 -0.780371 -1.4320217 2.6682112 -4.503469 -3.1551893 2.2097013
-0.76008594 -5.8871794 1.595445 -0.68344223 -3.13849 0.39135572 -4.775723 1.9263891
-1.5240982 1.3499422 3.8040195 -7.8210654 -3.0818043 1.0019875 -1.5756832 -1.7711844
-4.7722797 -0.76227564 1.3476579 5.803505 -8.48665 -3.452902 0.73864836 4.4824533
-0.32276192 1.0234779 0.1142274 -10.462098 -4.0652266 -0.6399895 -6.863094 1.5294273
-6.7426057 -4.273069 -0.7375149 0.39396837 3.1290987 -2.698932 -5.0768647 -3.3967106

dense1.1.layer2.0.running_var f4 [48]
00000000: a1c0 f740 cf06 d841 26e4 9142 c20b 2142
00000010: 0780 7641 8e70 a141 2c9a 4341 21c4 bc41
00000020: df67 c83f a1ff a441 5067 8641 d2e5 4a42
00000030: 78bb 0d41 3dbc 8f41 668a 4f42 fc55 c141
00000040: 152a 0440 107c 0442 ec31 5041 0898 cf41
00000050: f628 4b41 2ef6 5b41 92e6 e041 d405 6441
00000060: a9ff 9541 5e97 4a42 90b1 6841 5fbe 7841
00000070: 3100 a541 ebdd 3a41 02de 9541 d026 e541
00000080: 6e25 da40 698d 4e41 3a3e 0a41 82a0 cf41
00000090: 9db6 4142 5a26 5142 90f8 c041 5010 7f41
000000a0: ce3b c241 06f3 9741 6686 e240 1ca0 a140
000000b0: 9c21 2741 8482 6441 552f bb41 1a0a 8f42
7.7422643 27.003325 72.9456 40.261482 15.406257 20.179958 12.22514 23.595766
1.5656699 20.624819 16.800446 50.724434 8.858269 17.966913 51.885155 24.166985
2.0650685 33.121155 13.012188 25.949234 12.6975 13.747602 28.112583 14.251423
18.749834 50.64782 14.54335 15.546477 20.625093 11.679179 18.733402 28.643951
6.817069 12.909524 8.640192 25.953373 48.428333 52.287453 24.121368 15.941483
24.279202 18.993664 7.078906 5.0507946 10.445705 14.281864 23.398111 71.51973

dense1.1.layer2.2.weight f4 [12, 48, 3, 3]
00000000: 9e3f dbbe f424 a5bd 92a9 82be 134d 87be
00000010: 80cd 91bd c057 dabc d78b 8ebe b308 bdbe
00000020: d58b ccbe ad8e 54bf dcab 97be f91b d83e
00000030: 250e 17be ee2d d93e e61c 343f ef76 a43e
00000040: 3367 863f 5ed5 903f 8453 603f ef9b 873f
00000050: 5aea 943e c832 dc3e 9fa7 553e 064d 3d3f
00000060: 9d72 9dbe 9085 1ebf debe 273c 643e 103f
00000070: 3ff9 633f 51c5 953e 9dc5 2cbc 7876 22bd
00000080: cc76 213f 7193 14be abba d2bd 8b26 d23e
00000090: 1481 62bf cd15 96bf 2b4e aabf 8ce8 5b3e
000000a0: 4ddb 03bc c0a3 9e3d 3911 2a3f 1bab 423f
000000b0: c33d 273f b97e 31bf bee5 87bf 9a13 77bf
000000c0: ead0 0ebf 5acd bfbe aca4 133e b5f8 3a3b
000000d0: 13fb 7a3e 1076 023f 1e54 15bf 6ec3 e63e
000000e0: bba2 0e3f bd8c d2be 4dbc 193e fbec a03e
000000f0: 60b6 0e3d c5d7 093f 8ef5 153f 80fb ecbe
00000100: 53b2 3cbf a16f f3bd eebe f43e 2a51 a73e
00000110: 9ebc 883e 8d06 f13c e0dc bfbe 0e57 f5be
00000120: 779c e6bd 67d9 6ebd 3fda fabc 92a5 dcbc
00000130: 15c2 223b 78d2 23bd 0724 dd3d bd87 21bc
00000140: 0827 343c 7092 9dbf 697b b7bf 6646 8fbf
00000150: 0359 d0be 37b2 6dbe ceba 013f 2c58 373e
00000160: 6031 173f 0a58 7d3f 4c14 f9be ccf3 0fbe
00000170: 6d41 e9be 96d5 643c 79df 043d 5301 c23e
00000180: 2e8f 5fbe d768 d7bd 5b7a 24be 3831 583f
00000190: 4219 873f 2552 023f fe03 033e ea64 f23d
000001a0: ae37 3a3f 5abb 30bf fed2 29bf ddd2 8f3d
000001b0: 3f78 9cbe 3409 ddbe 2bab 0abf 9c51 bcbd
000001c0: 7931 45be 0ebb 433d 179b 1e3e b138 2d3e
000001d0: c700 ed3e a7db 9b3d 8729 aabe e714 a6be
000001e0: ef20 e4bd c545 3fbe 3df7 d5bd 692e 8fbe
000001f0: 2100 0fbf ea84 e7be 53e7 46bf 3b77 ffbf
00000200: 80e6 f4be b571 b43f dda1 d43f aeda bc3f
00000210: 0dac 873f 3456 f53f b04e b63f 5e18 0dbf
00000220: 1023 01bf 5051 46be 4648 42bf b442 38bf
00000230: fe48 03bf 23fd 48bf e3d8 26bf dd16 18bf
00000240: 3187 03bc 62a8 ce3b d808 93bd f675 ed3d
00000250: 95c3 ff3c cb43 ac3c 0f57 be3d 958e a43c
00000260: 0ab5 2c3b 1d3e 013f 45b1 3a3f 3d17 da3e
00000270: 2559 29bf fa15 5ebf ceb5 3cbf f229 9abf
00000280: d8f8 b7bf 709a 9ebf 060b 92bf 0b2f 16bf
00000290: 5161 bfbf 1894 2ebf 75d0 5dbf 0dff d0bf
000002a0: eacc 28bf cc46 16bf 517a 8bbf 265d a7bf
000002b0: 5e9c eebf fbc5 a4bf febe ce3d 1f01 b03e
000002c0: c27d c13e 9dd6 5c3f d42e bf3f 8d71 5d3f
000002d0: 007d 66bf a009 82bf 5173 91bf 322a f0be
000002e0: ddd2 17bf 5d57 02bf 409b 223e 1df5 603e
000002f0: b387 733e 1ed7 1abf 47af 15be 0d97 c0be
00000300: dfb7 38be f315 42bd 3f3b 123e 9717 663e
00000310: 7eb9 59be 874d 08bf 4abb aebf 268a cfbf
00000320: 2318 87bf 4b93 24bf b42b 17bf 1de9 1cbc
00000330: 9f71 b23f 4f09 eb3f 91a5 fc3f 18aa 0fbf
00000340: 8a01 15bf 9032 c3be 8dea dabe 8e35 033e
00000350: a772 61be e215 70be 7af1 123e 6e13 383b
00000360: 097d 2e3f dc51 8c3e 57c9 48bf 72e6 523f
00000370: b87b c73d c24b b6be dd90 b23f 9311 ba3e
00000380: 5050 1f3e 0ca3 283f ec0f 573f f588 c33e
00000390: da5a b23d a825 b23d f11c 4f3f 711c bebe
000003a0: 1826 4abe 6a83 043f bee6 1ebf 84ff 00bf
000003b0: bda9 0ebf 5a9f 1dbf 858a 1cbf 3259 10bf
000003c0: e25c b6be 4d18 11bf f90a 01bf 42bd 04bf
000003d0: 3859 1cbf f3b5 6abe 54e1 563e f78f 643d
000003e0: 6159 a7bd ddcf 09bf 69e1 94bf d19a a3bf
000003f0: 012a a9bf 321e 9cbf de3e abbe 37c5 0fbf
-0.42821974 -0.08063689 -0.25519997 -0.2642599 -0.07119274 -0.02665317 -0.27841064 -0.369207
-0.39950433 -0.83030206 -0.29623306 0.4220884 -0.1475149 0.42417854 0.70356596 0.3212199
1.0500244 1.1315114 0.87627435 1.0594462 0.29085046 0.43007493 0.20864724 0.73945653
-0.30751505 -0.6192255 0.010238377 0.563452 0.89052194 0.29252103 -0.010545162 -0.03966376
0.63071895 -0.1450937 -0.1028951 0.4104503 -0.8847821 -1.1725403 -1.3305105 0.21475428
-0.008047891 0.077460766 0.6643253 0.76042336 0.65328616 -0.6933399 -1.0616987 -0.96514285
-0.5578753 -0.37461358 0.14418286 0.0028529589 0.2450984 0.509614 -0.5833148 0.45070976
0.55717057 -0.41123 0.15013237 0.31430802 0.034841895 0.53844863 0.5857781 -0.4628563
-0.737096 -0.11886526 0.47801918 0.3267911 0.26706403 0.029422069 -0.37473202 -0.4791798
-0.11260312 -0.0583128 -0.030621646 -0.026934419 0.002483492 -0.03999564 0.10797887 -0.009859023
0.010995634 -1.2310314 -1.4334537 -1.1193359 -0.4069291 -0.23212515 0.50675666 0.17904729
0.59059715 0.9896246 -0.48648298 -0.14057845 -0.45557728 0.0139669385 0.032439683 0.37891635
-0.21831962 -0.105180435 -0.160623 0.844501 1.0554583 0.5090659 0.12794492 0.11835654
0.7274121 -0.69035876 -0.66337574 0.07022641 -0.3056049 -0.43171084 -0.5416743 -0.09195253
-0.19257154 0.04778581 0.1548885 0.16916157 0.46289656 0.07610255 -0.33234808 -0.32437822
-0.11139094 -0.18678959 -0.104475476 -0.27965096 -0.5585957 -0.45218593 -0.7769672 -1.9958261
-0.47832108 1.4097201 1.6611897 1.4754236 1.0599381 1.9166932 1.4242764 -0.55115306
-0.50444126 -0.19366956 -0.7589153 -0.7197678 -0.5128325 -0.78511256 -0.6517469 -0.59409887
-0.008027838 0.006306694 -0.07179421 0.11594765 0.03122119 0.02102842 0.09293949 0.02008752
0.0026353025 0.504854 0.7292674 0.42595854 -0.6615165 -0.86752284 -0.7371491 -1.2044051
-1.4372816 -1.239088 -1.1409614 -0.5866553 -1.4951574 -0.68194723 -0.86646205 -1.6327835
-0.65937674 -0.5870178 -1.0896703 -1.3075302 -1.864147 -1.2872919 0.100950226 0.34375855
0.37791258 0.86264974 1.4936166 0.8650139 -0.90034485 -1.0159187 -1.1363317 -0.46907192
-0.59306127 -0.50914556 0.15879536 0.21968503 0.23782234 -0.6048449 -0.14617644 -0.37615243
-0.18038891 -0.047384214 0.14280413 0.22469936 -0.21262166 -0.532433 -1.3650906 -1.6214035
-1.0554241 -0.6428725 -0.5905106 -0.009577063 1.3940924 1.8362216 1.9738027 -0.5611892
-0.58205473 -0.38124514 -0.42757073 0.12813398 -0.22016393 -0.23445848 0.14349928 0.0028087753
0.6815954 0.27406204 -0.7843222 0.8238288 0.09740394 -0.35604674 1.3950459 0.36341533
0.1555798 0.6587379 0.8400867 0.38190427 0.08708735 0.086985886 0.80903536 -0.37131074
-0.19741094 0.5176302 -0.62070835 -0.50389886 -0.5572775 -0.61571276 -0.61148864 -0.563861
-0.3561774 -0.56677705 -0.5040737 -0.51851285 -0.61073637 -0.2292097 0.20984393 0.055801358
-0.081713445 -0.538328 -1.163129 -1.2781621 -1.3215944 -1.2196715 -0.334464 -0.561603

trans1.layer1.0.weight f4 [48]
00000000: 6773 b53e 0b1f 943f 5ffe 6a3f ab8e 1640
00000010: 0eca 2b3f 2dd9 f23f ccfa e03f 5b51 c43f
00000020: 0336 ca3f 08d6 f63e f94f 0540 d340 873f
00000030: 9bf6 273f 9fa3 ce3e 1150 1040 a814 da3f
00000040: b59c 2d3f 2ff3 b73f 3aca 1440 22a0 553f
00000050: beff eb3f f78b ae3e 5363 fe3f 4563 593f
00000060: 331a 493e 4f7c b63f 5e57 9e3f e907 1740
00000070: 8ef5 1740 7cc6 1140 98ce 2b40 7625 0e3f
00000080: 7800 f53f 10a1 2a3f 220b 8b3f 28eb dd3f
00000090: f621 cd3f 59de 963f a0f9 d53f e742 cf3f
000000a0: 5c11 2f3f e0dd ac3f 70e6 963f 65c3 9f3f
000000b0: ac92 9e3f e460 c73e a334 793f 80e2 943e
0.35439608 1.1571974 0.9179439 2.3524578 0.67105186 1.8972527 1.7576537 1.5337328
1.5797733 0.48210168 2.0830061 1.0566658 0.65610665 0.40359208 2.2548869 1.7037554
0.6781724 1.4371089 2.324843 0.8344747 1.8437421 0.3409116 1.9874061 0.849171
0.196389 1.4256686 1.2370412 2.3598578 2.3743625 2.2777395 2.6844845 0.5552591
1.9140768 0.6665201 1.0862772 1.7337389 1.6025989 1.1786605 1.6716805 1.6192292
0.68385863 1.3505211 1.1789074 1.2481505 1.2388511 0.3894111 0.9734594 0.29079056

trans1.layer1.0.bias f4 [48]
00000000: 2912 55bf 7821 8abf 4f86 dabe 2419 22bf
00000010: fc26 9ebf b0c5 a23e 414a 87be 1837 9cbf
00000020: 499c 52bf 9a1a 30bf defa 33bf 7a60 273f
00000030: 79c7 0cbf 04da 0c3f 5c1e 7bbf 3300 31bf
00000040: 9b74 d13d 006e 3cbf 13f1 063f e002 f0be
00000050: c6e1 883f fae5 80bf cfb0 2f3f dc99 f3be
00000060: 0f9a 29bf abdc 913e c8b5 48bf 42d7 3abf
00000070: f678 e4bf 9e96 81bf af73 b9bd 0bb3 85bf
00000080: 608c cdbe 9804 04bf bbec 39bf 0ff9 0ebf
00000090: 8abc f8be 1bd3 b6be ec0b 01bf a888 d23e
000000a0: 8bca a4be f3dc 87be 773e d9be 1999 46bf
000000b0: bb31 9fbe 2b46 81bf ecea 13bf fdc1 42bf
-0.83230835 -1.0791464 -0.42680594 -0.6331961 -1.2355647 0.3179145 -0.2642384 -1.2204313
-0.8226972 -0.6879059 -0.7030467 0.65381587 -0.5499187 0.55020165 -0.980932 -0.6914093
0.10227319 -0.73605347 0.527116 -0.46877193 1.06939 -1.0070183 0.68629164 -0.47578323
-0.662507 0.2848867 -0.78402376 -0.7298471 -1.7849414 -1.012409 -0.09055268 -1.0445265
-0.4014616 -0.5156951 -0.7262685 -0.55848783 -0.48581344 -0.35707936 -0.50408816 0.41119885
-0.32185778 -0.26535758 -0.4243047 -0.7757736 -0.3109263 -1.0099539 -0.5778034 -0.7607725

trans1.layer1.0.running_mean f4 [48]
00000000: ab76 013d 9ae7 92be 5a28 423e 30df e03e
00000010: c49d a6be e492 8d3e e905 e5be c2b4 68bd
00000020: e98a 233e 686b 1e3e 9b23 8abd 38b8 b03e
00000030: 1e1d b33e 1bfc 62be c495 92be 01c2 463e
00000040: 5770 92be 3967 c0bc 69bb bebe 4366 b7be
00000050: 46ff 8ebd 610b f4bd 8db2 ce3d 3136 a13e
00000060: 92e7 30c2 490a 29c2 1823 d4c0 2f75 b5c1
00000070: ccb7 84c1 1c41 8bc1 c079 81c2 e2a9 87c0
00000080: 737b dec1 a386 9bc1 15e2 f9c1 2e3a 2bc2
00000090: 9c15 78c0 f55d 82c2 3856 5f41 6d2c 72c2
000000a0: 7c07 c4c1 63cd 7ac2 8585 b140 6806 f0c0
000000b0: f779 20c0 3216 e1c1 dca3 c9c1 758d 16c1
0.03160731 -0.28692323 0.18960705 0.4392028 -0.3254224 0.2765113 -0.44731072 -0.05681301
0.15970959 0.1547066 -0.067450725 0.34515548 0.34983152 -0.22166483 -0.28629887 0.19409944
-0.28601333 -0.02348672 -0.37252358 -0.35820207 -0.06982283 -0.11916233 0.100926496 0.31486657
-44.226143 -42.260044 -6.629284 -22.682219 -16.589745 -17.406792 -64.73779 -4.2394876
-27.810278 -19.44074 -31.235392 -42.806816 -3.876319 -65.18351 13.9585495 -60.543385
-24.503654 -62.700573 5.547549 -7.500782 -2.5074441 -28.135838 -25.20501 -9.409535

trans1.layer1.0.running_var f4 [48]
00000000: 7390 4b42 77e9 3e43 4b4d fe41 a833 b042
00000010: 4b99 6a41 5e3e 2542 36d5 1442 5210 1542
00000020: 1274 a642 b1a5 0a42 975f f841 13ea 3542
00000030: 818d 5042 5b38 da41 8079 9042 9de6 d042
00000040: 23d3 aa41 e962 3e42 3b59 0b42 148a 2042
00000050: fe4d 0842 0caf f241 25c3 0042 ea3f 3541
00000060: 377d 2845 fff1 8745 0fdf 0b45 5ae0 d844
00000070: b252 b844 4bee 4b45 1bca 8345 7c7c 7944
00000080: f893 2b45 e508 2145 72a9 e344 5f09 1345
00000090: 4258 db44 c513 1e45 39dd 0945 a91e 8845
000000a0: 4f25 9444 bb1e 0245 50cb bb44 3714 0944
000000b0: 2801 f744 b8e7 2144 adf2 5d44 e0ba e042
50.891064 190.91197 31.78774 88.10089 14.662425 41.310905 37.208214 37.265938
83.2267 34.661808 31.046675 45.47859 52.138187 27.277517 72.237305 104.45042
21.353094 47.596592 34.83714 40.134842 34.076164 30.335472 32.19057 11.328104
2695.826 4350.2495 2237.9412 1735.011 1474.5842 3262.8933 4217.263 997.94507
2745.248 2576.556 1821.2952 2352.5857 1754.758 2529.2356 2205.8264 4355.8325
1185.1659 2081.9207 1502.3535 548.31586 1976.0361 647.6206 887.7918 112.36499
